10200
1800
3431
DistilBERTClassifier(
  (distilbert): DistilBertModel(
    (embeddings): Embeddings(
      (word_embeddings): Embedding(30522, 768, padding_idx=0)
      (position_embeddings): Embedding(512, 768)
      (LayerNorm): LayerNorm((768,), eps=1e-12, elementwise_affine=True)
      (dropout): Dropout(p=0.1, inplace=False)
    )
    (transformer): Transformer(
      (layer): ModuleList(
        (0-5): 6 x TransformerBlock(
          (attention): DistilBertSdpaAttention(
            (dropout): Dropout(p=0.1, inplace=False)
            (q_lin): Linear(in_features=768, out_features=768, bias=True)
            (k_lin): Linear(in_features=768, out_features=768, bias=True)
            (v_lin): Linear(in_features=768, out_features=768, bias=True)
            (out_lin): Linear(in_features=768, out_features=768, bias=True)
          )
          (sa_layer_norm): LayerNorm((768,), eps=1e-12, elementwise_affine=True)
          (ffn): FFN(
            (dropout): Dropout(p=0.1, inplace=False)
            (lin1): Linear(in_features=768, out_features=3072, bias=True)
            (lin2): Linear(in_features=3072, out_features=768, bias=True)
            (activation): GELUActivation()
          )
          (output_layer_norm): LayerNorm((768,), eps=1e-12, elementwise_affine=True)
        )
      )
    )
  )
  (drop): Dropout(p=0.3, inplace=False)
  (out): Linear(in_features=768, out_features=4, bias=True)
)
Epoch: 1, Train Loss: 0.4635, Train Correct: 83.0098%
Epoch: 1, Val Loss: 0.3333, Val Correct: 88.2778%
saving model
Epoch: 2, Train Loss: 0.2644, Train Correct: 90.6176%
Epoch: 2, Val Loss: 0.3244, Val Correct: 88.7222%
saving model
Epoch: 3, Train Loss: 0.1981, Train Correct: 93.0686%
Epoch: 3, Val Loss: 0.3288, Val Correct: 89.5556%
saving model
Epoch: 4, Train Loss: 0.1601, Train Correct: 94.4510%
…
